temperature_prediction_model.pth (torch, 128030 bytes, 9 tensors)

lstm.weight_ih_l0 f4 [200, 1]
00000000: 9de6 3e3e 0cfb 6abd b57b 69bd 0716 01be
00000010: 1f45 653d 6489 8e3d bd28 903c f2eb a1bd
00000020: 9115 b83d 596a b53d 5875 babc 3d1b 40bc
00000030: 4fc4 803d 2a61 13bd 7ad6 10bd f670 4d3e
00000040: aa17 8cbd 8472 a8bc f564 b4bc c2dc 383e
00000050: d5b4 3139 3e7e 26bd 25e7 84bd 2670 5b3d
00000060: f060 e83d 7d6b cabd 9f01 0ebe c649 f33d
00000070: aebd 913d 253e 2e3d e738 e5bc 6998 553d
00000080: b9d8 2d3c ea36 aabd c9ba f23d 6cc7 133e
00000090: 08d8 bd3d 3ef3 4dbd d6c1 90bb cd0d be3c
000000a0: 79c9 85bd 3215 7c3d 7ee9 b83d 2056 adbd
000000b0: 2882 1b3e da11 b93d 95ec c83d 48ab 12bd
000000c0: d291 7abc 8787 31bd e726 7bbd 0e34 a1bd
000000d0: 4ae7 953d 71ae a63d 558b d0bd a7e5 343e
000000e0: 0fe8 afbc 23c8 1a3e a563 033c b214 e23d
000000f0: ce86 7439 06da f03d 4b68 173e ce10 523d
00000100: c797 1d3e f263 d33c 23a3 2a3e 61ad a5bd
00000110: 03ea 68bc 6eab a83c 6221 bcbd 4c29 bd3d
00000120: 5145 443e 3692 c73c abfb f4bd 4b3a e03c
00000130: 8a22 04be 5966 f63d e853 30bd 7291 c6bd
00000140: 0d35 953d bd45 99bd 4077 44bd 9841 d0bd
00000150: 2ed0 003c 9bdc 333e eb34 8fbd e6ea 45bd
00000160: 7655 da3d 4213 8dbd 1761 eb3d bf44 bcbd
00000170: 8ab5 04be 47c2 d33d c1da b1bd f9a5 433d
00000180: f78b 553e 6c73 883d 1636 173e ecb0 523b
00000190: e28e b8bd c76b f83d c5f5 3dbe 2640 003e
000001a0: f3da 95bd 479e 1c3e 694f ca3b 3d1f 883b
000001b0: f238 3d3e f0cd 563c c4a1 29be 3473 f73d
000001c0: aeab 0bbd fe33 5fbe ba41 643e 483c 42be
000001d0: 0bfe 263e de6b 6a3d 4792 2b3c 2b22 adbc
000001e0: 9ce9 9dbc 560b 583e 0901 0e3e 8442 ffbd
000001f0: ae54 aa3d c42a 983b 17d2 07be 6f28 1cbe
00000200: 233f 71bd 9f15 fa3d f727 0f3e d0f2 9c3b
00000210: 47e7 953d 7b0d fc3b e6da f23b eebd 4fbd
00000220: 8c0a 10bd 23ae 31be a134 f6bd a408 933d
00000230: 54a0 ac3d aed7 353e 490a 77bc 54a0 21bc
00000240: a6ac 053e ab40 1bbe ec1b 18be a466 e9bd
00000250: 9bec 813d 7d26 c5bd 9c56 333d 16a4 5b3d
00000260: 815c 783c 9c1c 33bd 07ce 153d b70b 453e
00000270: 1b81 d33d fb88 123e b33e 333e 1226 bcbc
00000280: a692 c43d a82c 953d da7a 9f3d 31d2 9c3d
00000290: 27d5 ac3d 55a1 c43d 515f 023d 0984 90bd
000002a0: 9d64 7539 5dd7 003d f26d 053d 80bb 3d3e
000002b0: 067c 8cbd 04d9 093d 9e6f 343d 0f89 133d
000002c0: 7800 32bd df8a ec3d e2ce 53bd ca16 c1bd
000002d0: 7cde 933d 3954 0e3e 1084 983c 4d09 223d
000002e0: e7aa 9abd b4a1 44bd e9d5 90bd 648c d63d
000002f0: 560d be3c 0bbd 093e 3a24 c63c 3bad c23c
00000300: e1e7 ec3d 79f5 df3d 72b5 303d e10b 043e
00000310: ccf6 5c3e c946 eebc fc7c 3b3c b287 a93d
0.1864266 -0.057368323 -0.05700274 -0.12606059 0.055974122 0.06959799 0.01759755 -0.07906331
0.089884885 0.08858175 -0.022761032 -0.011725244 0.06287443 -0.035981335 -0.03536079 0.20062622
-0.06840451 -0.020562418 -0.022020796 0.18052962 0.000169474 -0.040647738 -0.064894 0.05357375
0.11346614 -0.09883783 -0.13867806 0.118793055 0.07116257 0.042539734 -0.027981235 0.052147303
0.010610753 -0.08311255 0.11852033 0.14431542 0.0926972 -0.050280802 -0.0044176383 0.02319994
-0.065325685 0.06154365 0.0902891 -0.08463693 0.1518637 0.09036608 0.098107494 -0.035807878
-0.015293555 -0.04334214 -0.061316397 -0.07871257 0.073195055 0.08138741 -0.101828255 0.1766573
-0.021472959 0.15115409 0.008019363 0.110391036 0.00023319872 0.11760335 0.14785878 0.051285557
0.1538993 0.025804494 0.16663794 -0.0808971 -0.014215949 0.020589557 -0.09186055 0.092363924
0.19167067 0.024361711 -0.11962064 0.027371546 -0.129038 0.1203124 -0.04304877 -0.0969571
0.07285509 -0.07484005 -0.04796529 -0.10168761 0.007862134 0.17564623 -0.06992515 -0.04831972
0.10660832 -0.06888439 0.11493128 -0.091928 -0.12959877 0.1033979 -0.08684302 0.047765706
0.20854174 0.0666264 0.14766726 0.003214891 -0.09011628 0.12129932 -0.18550785 0.1252447
-0.07317152 0.15294753 0.006174017 0.0041541145 0.18478754 0.013110623 -0.16565615 0.1208252
-0.034099273 -0.21797177 0.22290698 -0.18968308 0.16307847 0.057231776 0.010471887 -0.021134457
-0.019276433 0.21098074 0.13867582 -0.12463859 0.083169326 0.00464377 -0.13263737 -0.15249799
-0.058898102 0.12211155 0.13980089 0.0047896877 0.07319503 0.0076920367 0.0074113486 -0.05071824
-0.03516631 -0.17351584 -0.12021757 0.071793824 0.08429018 0.17758057 -0.015078136 -0.009864885
0.13054141 -0.15161388 -0.14854401 -0.1139653 0.06343957 -0.09626482 0.04378377 0.05362328
0.015158773 -0.043728456 0.036573436 0.1924275 0.10327359 0.14310066 0.17504387 -0.022967372
0.095982835 0.07283908 0.07787104 0.07657278 0.08439093 0.09601084 0.031829182 -0.07056434
0.00023402502 0.031455386 0.032575555 0.18528557 -0.06859593 0.033654228 0.04405176 0.03601938
-0.04345748 0.11549925 -0.05171097 -0.09428175 0.0722017 0.13899316 0.01861766 0.03955965
-0.07552128 -0.048005775 -0.0707205 0.10475996 0.023199718 0.1345102 0.024187196 0.023764243
0.11567665 0.10935492 0.04314179 0.12895156 0.2157852 -0.029086487 0.011443373 0.08277835

lstm.weight_hh_l0 f4 [200, 50]
00000000: 0640 00be 9191 123d b47f ab3c 65c2 51bc
00000010: 1220 94bd d402 f73d f33a acbd 9d0c 513c
00000020: 6ad8 c33d fd31 00be 54bf d0bd 3a1d 173e
00000030: acab 6a3d 6bb0 1fbe 6e4a 6abc cce5 e9bd
00000040: 4b01 ec3c 4df2 d83d dbf7 cb3d 2af0 f9bb
00000050: 9255 22bd 0d6b 043e cc40 193d 850f 513d
00000060: 9b8e 073e 29c0 a7bc f1ba 713c 18dc aebd
00000070: 1b1a ddbc 3e5a b03d 4b65 593d adc8 ca3d
00000080: 70f8 db3b 2eed 8ebd caa2 f5bd 1f19 0fbe
00000090: f111 833d 7592 c1bd 1f38 a0bd 50e0 9e3c
000000a0: 89e8 993a 975e 30bb d89d c23c 1b69 09bd
000000b0: c6a1 cf3b cb6a 78bd 4ddb 8c3d d0ad 943d
000000c0: 1840 5dbd b8a3 96bd 957f d33d dc37 d53d
000000d0: 09fb 783d d5d6 e7bc 615c 953b c4c5 21bd
000000e0: af05 c6bd 8dfb d63d 4bd1 d1bc e572 083d
000000f0: 2355 f0bd 113a c9bc d902 843d 85d4 05be
00000100: 36e7 213e b350 2ebb 6089 9dbd e6cc 8abc
00000110: c311 8f3d d4e3 32bd 1919 8a3d b8d4 bb3d
00000120: f443 9f3c 3748 46bc fb66 c93d 34a3 633d
00000130: 6f60 6fbc e669 2bbc b17c 62bd 3225 1ebd
00000140: 11a1 053e 95fe c9bd 2037 bdbc a521 843d
00000150: 0e5b f83d bc36 9abb 8755 c03c cf88 e0bc
00000160: d7b1 1cbd 4732 ed3d 1a44 1cbc 9189 bdbd
00000170: 7d09 a43d e1ee eb3c 964a ce3c 23d5 a3bd
00000180: f5fb bcbd 4ea6 173d 4cfc b83d bb87 88bc
00000190: 91e7 85bc e0c1 e0bc 9952 1f3d f0e0 7f3d
000001a0: e2f8 cb3c 2b38 1b3e 44b8 25bd 8ac1 7cbd
000001b0: 1df8 92bd 763f cf3d 92c7 8fbd bf9a b63d
000001c0: d807 1bbe 253e 253d 9b78 9b3d 3da7 fabc
000001d0: 47fa 013e 4f4d 073d ce93 81bd abbf 30be
000001e0: 460c 933c e10a 3c3e c099 ab3d dbe4 57bd
000001f0: 095a 9c3c 9cb6 4bbe 8ffa 133e 1a2b fabd
00000200: c1cc 41bd bc4c 96ba 51ca cd3c 3bea 1dbe
00000210: 4f2e 5d3e d2ed 62bc 8b4a 50be 1234 8bbc
00000220: 7d56 f13b 5801 20be 4ad9 fd3d bfe5 b03c
00000230: 3c9c 20be 5543 20bd 1f03 8a3e 2d8f 4a3e
00000240: ec0a 133e b58f 2d3e cc06 5cbd e47c 95bd
00000250: 9835 5cbc b2ec 6c3d 8d89 02bd 06c3 1ebd
00000260: 301d 223e 654a bdbd c097 b13c 5d21 1bbe
00000270: ff2f e6bd 3057 d13d 0f84 c9bd 2ff6 ac3d
00000280: f47f 7a3d ed74 06be e30b 40bd 8302 0d3e
00000290: 678c e03d e2e6 0f3e ce72 ba3b ac65 aa3d
000002a0: 93ce f9bd 5539 843c 8a3b f3bd 0205 a03d
000002b0: 65ca 52bc 239f dd3d d540 05be 92ec cdbd
000002c0: d8bc 543e cdc0 d0bd 55a1 513c cc75 8c3d
000002d0: e3f5 b3bd ca9c 18be 7e44 7cbd d759 12be
000002e0: f46e 04be c8ad 2bbd d1dd 253e cc01 403d
000002f0: 9716 e3bc 1456 5abd 82b0 b7bd 91f2 023c
00000300: a9e7 f13d b185 083e 2429 3b3d 90d6 cc3d
00000310: 9ebd 00be 0f79 6a3c a37b bdbd 1995 273d
00000320: ba74 06be 496a 903c c7fa 1d3d 27e1 0abd
00000330: 86d7 00be c6a1 b0bd 6869 913d 3e49 93bd
00000340: 444b 363c cdc8 11bc ec0a 9ebd 8a22 8abd
00000350: 6434 12be 20ff 1bbd d28f 6dbd a896 923d
00000360: 1097 023d 245e 9cbd 12ff e33c 246a e2bd
00000370: 44de d73d bf9a 28bd 5b98 5abc 6e5a 113d
00000380: d088 9bbd 71b2 1fbd 0977 d13d 1538 1ebe
00000390: 8776 5dbd ebc0 2b3d ab5e fbbd b107 683d
000003a0: 3a6e e23d 31d7 f3bc 2d68 f13d f009 313d
000003b0: 0cd8 c7bd e6bf 06be e352 fb3d c368 b2bc
000003c0: 951b eb3c a749 7bbb 93c7 f13d 0304 5a3d
000003d0: f68c 553d e87f 003d 867d d83d e796 e8bd
000003e0: 4e77 793b b768 c5bc c63e 1fbe 0a8b 623e
000003f0: 870f 8cba eb19 5bbd d152 003e ec79 333e
-0.12524423 0.035783354 0.020934917 -0.012802695 -0.072326794 0.12061086 -0.08409681 0.012759355
0.09562762 -0.12519069 -0.10192743 0.14757243 0.057292625 -0.15594642 -0.014299972 -0.114207834
0.02880921 0.1059309 0.09959384 -0.0076275067 -0.039632387 0.12931462 0.03741531 0.05104019
0.13237993 -0.020477371 0.014754043 -0.08538073 -0.026989987 0.08610962 0.053075116 0.09901557
0.0067129657 -0.06978832 -0.1199394 -0.13974427 0.063999064 -0.094517626 -0.07823204 0.01939407
0.0011742275 -0.0026911849 0.023756906 -0.033547502 0.0063364236 -0.06064872 0.06877766 0.072597146
-0.054016203 -0.073554456 0.10327069 0.10411045 0.06078628 -0.028300682 0.0045581316 -0.039495245
-0.09669053 0.10497198 -0.025612494 0.033312697 -0.117349885 -0.024563821 0.06445856 -0.13069351
0.15810856 -0.0026598393 -0.07692218 -0.016943406 0.0698581 -0.043674305 0.06743068 0.09171432
0.019441582 -0.012102178 0.09834095 0.055575565 -0.014610394 -0.01046226 -0.055294696 -0.03860969
0.13049723 -0.09863011 -0.023097575 0.0645173 0.12126742 -0.004706232 0.023478283 -0.027408985
-0.03825554 0.11581855 -0.009537721 -0.09254754 0.08009622 0.02880043 0.02518205 -0.07999637
-0.092277445 0.037023835 0.09032497 -0.016666284 -0.016345771 -0.027436197 0.03889713 0.062470376
0.02489895 0.15158145 -0.040458933 -0.06170801 -0.0717623 0.10119526 -0.07020487 0.08916234
-0.15139711 0.04034247 0.07591363 -0.030597324 0.1269313 0.03303271 -0.0632702 -0.17260616
0.017950188 0.18363525 0.08378935 -0.052708488 0.0190859 -0.19893879 0.1445105 -0.12215252
-0.04731441 -0.001146696 0.025120886 -0.15421383 0.21599697 -0.013850646 -0.20340936 -0.016992602
0.0073650465 -0.15625513 0.1239496 0.021593926 -0.15684599 -0.039126713 0.26955506 0.1978118
0.14359635 0.16949351 -0.05371742 -0.072992116 -0.013440512 0.057842918 -0.03186946 -0.038760208
0.15831447 -0.09242705 0.021678805 -0.15149446 -0.11239623 0.10221708 -0.09839641 0.08445393
0.06115718 -0.13130541 -0.046886336 0.1377049 0.109642796 0.14052919 0.0056899553 0.083201736
-0.12197604 0.01614062 -0.118765905 0.07813455 -0.012865637 0.108213685 -0.13013013 -0.10054888
0.20775163 -0.10193024 0.012794812 0.068584055 -0.087871335 -0.1490356 -0.061588757 -0.14292084
-0.1293295 -0.041913778 0.16197897 0.046876714 -0.027720733 -0.053304747 -0.08969213 0.007992403
0.11811764 0.13332249 0.04569353 0.10001862 -0.12572333 0.014311089 -0.092520975 0.040913675
-0.13130465 0.017628806 0.038569238 -0.03390613 -0.12582216 -0.08624606 0.07100183 -0.07191704
0.011126343 -0.008897972 -0.07716927 -0.06744869 -0.14277798 -0.038085103 -0.057998486 0.07157642
0.031882346 -0.076351434 0.027831588 -0.11055401 0.10540441 -0.041163202 -0.013341988 0.03548663
-0.07594454 -0.038988534 0.10227782 -0.15451081 -0.054068115 0.041932028 -0.12273916 0.05664796
0.1105618 -0.029765697 0.11787448 0.043222368 -0.097580045 -0.13159141 0.12271669 -0.02177847
0.028699676 -0.003834346 0.11805644 0.053226482 0.052136384 0.03137198 0.10570817 -0.11356907
0.0038065496 -0.024097783 -0.1555129 0.22123352 -0.001068578 -0.053491514 0.12531592 0.17526978

lstm.bias_ih_l0 f4 [200]
00000000: f7a5 3ebd 7190 713d aa1e 693e 9a09 a9bd
00000010: acf3 dbbd 9305 5f3e 0c0d 53bd 65b9 74bd
00000020: ffb8 2b3e ce2b d63d 827a ac3d 569f 3b3d
00000030: 3fa8 bbbd 350f 363d 6e2c 043a 86da 9d3d
00000040: 4975 c0bb 402c 863d 9e37 083e 0234 0d3e
00000050: 3470 fe3d 1435 30bd 5d99 0ebb a0e7 8fbd
00000060: b366 acbd 4cf5 74bd 259d 393e 7a87 fc3d
00000070: 7a2b d8bd ed1a 753d ad41 b73d 534a 5f3d
00000080: 6c48 193e b967 a5bd 5313 e2bc 013a 1f3e
00000090: 7903 01be 9850 90bb 1840 d13b 0816 93bd
000000a0: eb0b 63bd c506 ba3d 6380 f03d 3067 ae3c
000000b0: ddb0 e8bc 5c59 5cbd 6a11 aebc b0c7 babd
000000c0: 2985 9a3d 7183 033e e057 993d 8039 e53c
000000d0: 8166 213e b8b0 9bbd 1e69 8f3d ff68 2e3e
000000e0: 576f fcbd df3c 03be 3f37 4e39 8f13 ccbd
000000f0: 8d05 d93d 6914 d3bd 1d00 23bd 597b e73d
00000100: 17d0 4a3e 594f 223e 5c3d 073e b997 cf3c
00000110: 4904 28bc 675e f33d ca84 2bbc a590 07bd
00000120: d127 d4bd abea 9cbd a508 17bd 16be 203c
00000130: ed19 debd c9d6 033e c924 b13d f112 c5bc
00000140: d64e 983c 456a a7bd 6218 b13c 37f8 a13d
00000150: 6402 56bd 8c00 c9bc 37de 1fbe 10f5 78bd
00000160: c374 313d e718 c0bd b99f 7a3d 0dae 773d
00000170: c3e9 f33d 5791 17ba 108a 54bd caa0 bb3c
00000180: 801c 283e 5fb4 fc3d b5bd ac3d b333 00bd
00000190: c6f4 4bbd 4870 9b3d 06ae d1bc 551b bebd
000001a0: 2b0a 0b3e 691d e0bd 2b97 11be bb9c b4bd
000001b0: fbbb 0ebe 27b8 9fbd c789 c9bc 648c 71bc
000001c0: 99fd a8bd 4ffd 363d dbbd 59bd 90a1 0abe
000001d0: 2cb8 e3bd f72b a73d 2881 7bbd f322 a0bd
000001e0: e465 17be a927 cdbd ba7b 103d c76f bd3d
000001f0: 0738 043d c4de 1f3d a2e9 c7bd fb65 1ebd
00000200: 81ed 1e3d 5a93 bb3d 4101 133e 3fce b83d
00000210: b6df 903d b7ed 93bc e687 dfbd 2c9e 15be
00000220: 0b13 c53d 9af8 d1bd 50a2 df3d 3d8f c6bc
00000230: ef17 cebd 63a8 31bd 785d 5ebd 02a7 9c3d
00000240: 1bf8 a53d 6f4d 75bd 9efc 1dbe a637 e7bd
00000250: f051 f9bd e2b9 b8bd 961e c2bd f59a 7f3d
00000260: 32c7 813e b7f1 e73d ff67 6a3d 6a99 35bd
00000270: 70f5 0bbd 5517 8b3c aa59 cebb aad2 123d
00000280: 57c1 143e 00c8 183e c04c c1bd 8689 b73d
00000290: 3df1 f73d c7f4 22bd e6be b0bd 507c 243c
000002a0: 35a1 d03d 6558 8c3d b74b 833d 8006 e73c
000002b0: ac86 d63c afd8 ed3d 928c 043e 1c8e 923d
000002c0: 19d1 e93d 34fb 1b3d 2b3f bdbd 6741 b8ba
000002d0: 8629 873c 4238 aebb 5012 2e3d 035c 0a3e
000002e0: b1d0 663d a252 cd3d 0a79 a2bd ffe7 e13d
000002f0: 619c 00be 1712 bebd 4f69 103e 6e21 94bc
00000300: 9280 a13d 7fde 1c3d 9612 b9bc da99 75bd
00000310: 845c a53d 6c02 ed3d 1984 04be 3d23 4d3d
-0.046544995 0.05897564 0.22765604 -0.082537845 -0.10739836 0.2177947 -0.051526114 -0.05974712
0.16769789 0.10457574 0.08421804 0.04580625 -0.0916295 0.044448096 0.0005042021 0.07707696
-0.0058733565 0.06551409 0.13302466 0.1378937 0.12423745 -0.04301937 -0.0021758892 -0.07026601
-0.08418026 -0.059804246 0.18126352 0.123305276 -0.105551675 0.05984013 0.089480735 0.05451424
0.14969033 -0.08076424 -0.027597105 0.1554947 -0.12598981 -0.004404139 0.0063858144 -0.071819365
-0.055431288 0.090833224 0.11743238 0.021289438 -0.028404647 -0.053796157 -0.021248538 -0.091201186
0.075449295 0.1284311 0.07487464 0.02798152 0.15761758 -0.07602066 0.070024714 0.1703224
-0.12325924 -0.12816189 0.00019666272 -0.09964668 0.10596762 -0.10306627 -0.03979503 0.113028236
0.19805942 0.15850581 0.13207 0.025340902 -0.010254928 0.1188324 -0.010468671 -0.03309693
-0.10359157 -0.07661947 -0.03687348 0.009810945 -0.10844789 0.12874903 0.08649594 -0.024056884
0.01859228 -0.08174566 0.021618072 0.07908671 -0.052248374 -0.024536394 -0.15612112 -0.060780585
0.043324243 -0.0937975 0.06118748 0.060468722 0.11909821 -0.000578185 -0.05188948 0.022903819
0.16417122 0.123390906 0.08434621 -0.031299304 -0.04979398 0.07589775 -0.025595676 -0.09282557
0.13578098 -0.109431095 -0.14217822 -0.088189565 -0.13938896 -0.07798796 -0.02460183 -0.014742944
-0.08251495 0.044675168 -0.053159576 -0.13538194 -0.11119112 0.081626825 -0.06140247 -0.07819166
-0.14784962 -0.1001733 0.035274245 0.092498355 0.032279994 0.039030805 -0.09761359 -0.038671475
0.03880072 0.091589645 0.14355947 0.09023713 0.070739195 -0.018057687 -0.109145924 -0.14611119
0.09622773 -0.10252495 0.109196305 -0.024238223 -0.10063159 -0.043373477 -0.054288357 0.07649042
0.08103963 -0.0598883 -0.15428397 -0.11289911 -0.121738315 -0.09019829 -0.0947849 0.062403638
0.25347286 0.113254 0.057228085 -0.04433576 -0.034169614 0.016978899 -0.00629731 0.035845436
0.14526878 0.14920044 -0.09438467 0.089617774 0.121065594 -0.03978422 -0.08630161 0.010039404
0.10186998 0.068527974 0.06410926 0.028201342 0.026187263 0.11613595 0.12944248 0.071560115
0.11416835 0.038081363 -0.09240564 -0.0014057577 0.016499292 -0.005316765 0.042497933 0.13511662
0.056351367 0.100255266 -0.079332426 0.11030578 -0.12559654 -0.09280794 0.14102672 -0.018082347
0.07885851 0.038298126 -0.02259187 -0.059961177 0.080742866 0.115727276 -0.12941016 0.050082434

lstm.bias_hh_l0 f4 [200]
00000000: c887 983c 9ee5 09be c651 883e f861 d9bc
00000010: c027 01bb fd80 1d3d 1df9 c73d 176e 8bbd
00000020: 30c8 3b3e c7fb 8fbd d3ef 4b3d 6864 a5bd
00000030: 845e d33d 270a 1c3e bdb1 803e 4fa0 6f3d
00000040: 414d ba3d 4826 65bd 314d adbd d952 b63d
00000050: 135e 8fbd e798 b73d a71d bebd a051 e1bc
00000060: 15e7 8abd 3bf6 e7bd 6fd8 203e 08fb 1cbc
00000070: bf16 923d 2dc4 113e 1569 1f3e aded b93d
00000080: 7c5d 2dbd 09df 87bd eb95 01be fb3f eebd
00000090: 0705 1cbe 1666 783c b44c 6fbd 0a50 b13d
000000a0: 4217 753d 8607 273e afb6 0e3d fbe4 fb3d
000000b0: 4278 fd3c f57a e03d 8250 943a c50f 8a3c
000000c0: 1ad2 db3d e8d9 d93d a007 303d 5ac4 f7bd
000000d0: 0aa1 613e 16f3 21bc 005a c5bd 822b 69bc
000000e0: 91e9 afbd c29f 7f3d 787e 823d ef37 9a3d
000000f0: f063 74bd 1284 a23d 83cc 9fbd 47f0 61bc
00000100: 6294 a93d 59a8 c43d 68ca e13d cea8 0bbd
00000110: 46eb a3bc d5e3 aebc 5f5c c5bd da74 4dbd
00000120: a12b aa3d a1c2 0f3c 6fe3 c1bd eff8 0e3e
00000130: 8e8c 103e 88d4 32bd 828c 803d 2f41 c3bd
00000140: dbd6 dc3c 02dc 8ebd 709f 1c3e 5dac 823d
00000150: bf97 df3d c183 053e 42fd f5bd 8523 2d3d
00000160: 29b9 9ebd 2c9b 61bd 5c78 f4bd 5b17 933d
00000170: 862f 8ebd 1621 903d 5556 0b3e 1c1c e5bc
00000180: e89c a33d ab70 babd 1cf5 703b 96a5 453a
00000190: 2dbb c639 a766 b93d 0a8d c33d dcb8 9cbd
000001a0: 186a 7e3c 3695 063e 1cfc f83c 020b 02be
000001b0: 6502 233d 9543 a73d cd44 04bc c4be da3d
000001c0: e0e7 03bd 3039 873c 3df3 16bd 7c29 4a3d
000001d0: 4556 ed3d 7e36 bebd 1ccc 0ebe 9e0f 0fbd
000001e0: 74b3 ffbc 4014 193d baa8 003d 26d1 d2bd
000001f0: d916 dc3c 1cbf d3bd 7914 303e 10da ec3c
00000200: eb59 4dbd eb59 88bd f822 193d 9ec3 f7bd
00000210: cf99 07be 4b85 503d 4f43 e7bd b6a0 86bb
00000220: 7a7d 9f3d 2523 c6bd a115 863d be15 aa3b
00000230: 08a9 f6bc d4dc e63d 7cdc 053e 8521 073e
00000240: 7d75 813d 1e8b b1bd 165e 00be f163 153d
00000250: 9410 b3bd a9e5 903b 4b2b dd3c 7d22 2bbc
00000260: 02a6 103d f021 1fbc 493a c53c 03cf 663c
00000270: 950b efbc e92c 95bd 0380 453c a65f b4bd
00000280: 1003 243e 9220 f13d 3da6 dbbd 79f5 883d
00000290: 5877 4b3e d0d9 c2bc aec0 f73d e95f 433d
000002a0: 6c06 193e eece 27bd 359d 01be 1cd3 5abd
000002b0: 4725 b93d 6287 dfbd e955 fe3d 013c babd
000002c0: fde7 063e e501 083e a2c4 dbbd da52 993d
000002d0: f920 133e eedf 2fbd e1ec 783d 5aa7 fe3d
000002e0: a482 fdbd c92e a3bd add3 103d 58bc 6a3d
000002f0: 999a 0dbe 0091 cc3d 4fcb 9bbd a076 e43c
00000300: 178a d3bb 6186 0bbd ecf2 46bd 1145 a73d
00000310: 2518 de3d 94ed b9bd 818a 8bbd 05e3 f23d
0.018619433 -0.13466498 0.26624888 -0.026535973 -0.001970753 0.03845309 0.097643115 -0.06808107
0.18338084 -0.070304446 0.04978926 -0.080757916 0.10320762 0.15238248 0.25135604 0.05850249
0.09096766 -0.05594471 -0.08461989 0.08902521 -0.07000365 0.08964711 -0.092829995 -0.027504742
-0.06782357 -0.113262616 0.15707563 -0.009581335 0.07133245 0.14234991 0.1556743 0.09078536
-0.04232548 -0.066343375 -0.12654845 -0.11633297 -0.15236293 0.015161058 -0.05842276 0.08657844
0.059836634 0.16311464 0.03484219 0.12299534 0.030941132 0.10960952 0.0011315497 0.016853223
0.10733433 0.106372654 0.04297602 -0.12097998 0.22034088 -0.009884616 -0.09636307 -0.0142315645
-0.08589471 0.062408216 0.06371778 0.075302 -0.05966562 0.07935347 -0.078026794 -0.013790197
0.08280255 0.09602422 0.11024934 -0.03409653 -0.020009648 -0.021348873 -0.09636759 -0.050160266
0.08309103 0.0087744305 -0.09467208 0.13962148 0.14116117 -0.043659717 0.062768 -0.09533917
0.02695792 -0.06975557 0.15295196 0.06380532 0.10917615 0.13038541 -0.12011196 0.042270202
-0.0775016 -0.055079624 -0.11937019 0.07182189 -0.06942658 0.07037561 0.13607152 -0.027967505
0.07988912 -0.09103521 0.003676719 0.0007539628 0.0003790496 0.090527825 0.095483854 -0.07652447
0.015528224 0.13142857 0.030393653 -0.12699512 0.039797205 0.08167187 -0.008073044 0.10680917
-0.032203555 0.016506761 -0.036853064 0.04935597 0.1158872 -0.09287737 -0.13945049 -0.034927003
-0.0312135 0.037372828 0.03141091 -0.10293798 0.026866363 -0.103391856 0.1719531 0.028912574
-0.05013458 -0.066577755 0.037386864 -0.12097858 -0.13242267 0.050908368 -0.11292135 -0.0041085137
0.07787605 -0.09674672 0.06547094 0.00519058 -0.030109897 0.11272588 0.1307239 0.1319638
0.06321237 -0.086691126 -0.12535891 0.036472265 -0.087433964 0.004421909 0.026998183 -0.010445234
0.035314567 -0.009712681 0.024075644 0.014087441 -0.029180327 -0.072839566 0.012054446 -0.08807306
0.16016793 0.117737904 -0.10725067 0.06687445 0.19869745 -0.023785502 0.120972976 0.04769889
0.14943856 -0.040968828 -0.12657626 -0.053423986 0.09040313 -0.10914494 0.1241873 -0.09093476
0.13174434 0.13281973 -0.10730864 0.07486506 0.14368047 -0.042938165 0.06077278 0.124342635
-0.12378433 -0.07967908 0.03535812 0.057308525 -0.13828506 0.09988594 -0.076071374 0.027888596
-0.0064556706 -0.0340637 -0.048571512 0.0816747 0.10844449 -0.090785176 -0.06813527 0.11859707

lstm.weight_ih_l1 f4 [200, 50]
00000000: 51e8 19be 2c11 3a3d 4547 ad3c 28e9 233d
00000010: f0a3 0fbd 5a44 d03d 67c8 01bd a5e5 9b3d
00000020: e1f7 653b 509a 1c3e c414 cebd bb2e a4bd
00000030: 45b5 0ebc bfdf 4abe 154a ce3d c155 1f3d
00000040: 928b be3d f55d 79bd 11ed fabd 18f8 253d
00000050: efdf b3bd 7de1 6abd 2ead 063e 5971 8b3d
00000060: 0dc3 0b3e 03fe 9dbd 51da 0bbd f045 9ebd
00000070: fd1d de3d c5e6 22bc 3c3c 693c 7d78 adbd
00000080: 4e52 aa3c 3734 afbd 23ac 06bd c9a3 033c
00000090: fa54 ae3d fe1d 003d 8a13 fc3c 1c74 263e
000000a0: 427a a63c 2bd4 57bc 3625 f3bd d64e 9f3d
000000b0: 8c7e 263e 4931 f6bd c0ff 3b3d be78 a93c
000000c0: ea39 e83d e722 04bd c3f1 d23d 76f3 1d3e
000000d0: 79a6 ef3b fd62 033e 726d 65bd 9b70 dfbc
000000e0: 26e4 583d 21b1 d9bd 6c88 123e 84dc 5fbd
000000f0: 567e 273c 0565 0a3e f4ee 0a3d efb1 edbc
00000100: 2409 de3c 2a41 acbd 3dbb 4a3d 83e2 6fbd
00000110: 71a9 8e3c 5174 1ebe 022c 813d da9a f5bb
00000120: 3e4c 043e ca3c 5b3c eb6b e63c 567a 01be
00000130: 4e52 513d fad9 473b ceae b03b 4c87 db3d
00000140: f573 523d c1ae d0bd cbc7 49bc 4db5 8dbc
00000150: d5da 013e 0625 a3bc 7d9b a2bd 577a b0bd
00000160: 2236 dcba a31e c5bd 3ccc 703d fab9 e73c
00000170: ddb4 003e 8849 1ebd 964f 1b3e 1e7a cabd
00000180: 2475 25bc 7483 0bbc bc2f 54bd 1ba4 d43d
00000190: c2b0 e93d 7402 cebd 3554 7cbd 4c59 a7bd
000001a0: b0a4 9abd be4c 00bc 3d6d 883d e057 4ebc
000001b0: 1df6 4bbd 9106 a3bd 69ce 27bd a116 f8bb
000001c0: 372f d83d 8fca 2bbe 1548 42bd c8b4 b5bd
000001d0: a3ee 1f3d fa34 d3bd 02b6 973c e8f5 ccbd
000001e0: bfdb 083e 6578 e9bd 3fd2 02bc 2efc 0b3d
000001f0: 5ced 4b3c b397 68bd 61c3 d43d b4c0 2b3c
00000200: 0767 9a3d bcdc aa3c 410c b4bd 38d1 00be
00000210: 2d62 2e3c 60af 3ebd 0648 80bd 9368 1b3c
00000220: c6ee f1bd 8f0c 04be 23a2 be3d d5d6 fa3c
00000230: 26b3 603c 0013 0f3e c8f0 cbbd 399e 793d
00000240: e76a 03be 7b58 ca3d 5789 18bd bf59 af3d
00000250: 1519 c4bd 7b76 f5bc bff6 623d b692 893d
00000260: 0d0d d1bd d36c af3d 413a ba3c 70ed 063e
00000270: 3e34 393d f1ee 21be c914 393c a64d 84bd
00000280: 72cc 13be 9b34 e03d fc41 b73d 10be 4dbd
00000290: b7bc 50bd 2919 23be d4e5 34bb dc30 b83b
000002a0: 143f 643d 4f4a 8f3d f4f7 ab3d 92cc ce3d
000002b0: 37cd 0bbc 426c b13c fe61 0d3e d1ec e73d
000002c0: 131b 243c 100d 17be 98b2 0bbe 6b2a 823d
000002d0: 72d0 5bbd 7062 933b 04bc 5a3d 3962 073e
000002e0: 31ad f8bc c34f c93d d2de 8c3c b3a0 81bd
000002f0: 44f5 033e 62a9 343b 13cd aa3d b15d 253e
00000300: 25c6 e9bd 4bab 703d c152 83bd 3230 76bc
00000310: b86b a0bd a004 2f3c 02e2 32bc b93e a3bd
00000320: 8af4 2b3d ef0f 9bbd 52de c5bd 25d5 0b3e
00000330: 7795 f7bd 2a08 b53b 8c28 b1bd ff25 b63d
00000340: 33d2 6a3d 939f 46bc 7a0c 8d3d f7e2 cbbd
00000350: cdd7 0f3e 6f87 c73d 6cbd a1bd 59af 0a3e
00000360: cda4 00be 776a 7b3c a611 c93b 32d9 f23d
00000370: 5919 6ebc dc46 ea3d 24b0 80bd bc60 4d3d
00000380: 8234 6cbc bcfa 6c3d 74cf 77bd 6e33 81bd
00000390: cea9 18be dc8a 8abd 4020 4ebd 1cd3 573d
000003a0: 8973 febc d697 1abc 66df 533d fb1e 773d
000003b0: 28bf a6bd 9b9d c53d 3f18 aebd 3477 aabd
000003c0: cbbf 82bd 0d74 8cbc a03e 55bc 95ce 0e3c
000003d0: de33 17bd 1d98 73bb c162 23ba 9448 1e3e
000003e0: b0d4 41bc 8d51 f43c b6c2 143e a433 afbd
000003f0: 6805 a6bd 69ce 9bbd cf54 8ebd 5d2d d2bd
-0.15030028 0.045426533 0.021152148 0.040017277 -0.035068452 0.10169287 -0.03168526 0.076121606
0.0035090374 0.1529324 -0.100625545 -0.08016726 -0.00871021 -0.19811915 0.10072724 0.03890014
0.09303965 -0.06088062 -0.12252248 0.040519804 -0.08782946 -0.05734395 0.13152 0.06808729
0.13648625 -0.077144645 -0.03414375 -0.07728183 0.108455636 -0.009942715 0.014235552 -0.08470247
0.020791199 -0.08554881 -0.032879006 0.008034655 0.08512302 0.031278603 0.030771036 0.1625523
0.020321969 -0.013173143 -0.11872332 0.07778709 0.16259211 -0.12021119 0.0458982 0.020687457
0.11339171 -0.032259848 0.10300019 0.15424904 0.0073135463 0.1283073 -0.05601258 -0.027275374
0.052951954 -0.10629488 0.14309853 -0.05465366 0.010222992 0.13515098 0.03391929 -0.02901551
0.027103968 -0.084108666 0.04949497 -0.058565628 0.01741478 -0.15474059 0.06307222 -0.0074952664
0.12919709 0.013381192 0.028127631 -0.12644324 0.051103882 0.0030494914 0.005391932 0.10719165
0.051380116 -0.10189582 -0.012315701 -0.017298365 0.12681134 -0.019915115 -0.07939813 -0.086170845
-0.0016800801 -0.09624984 0.058788523 0.028286923 0.12568994 -0.038644344 0.15167078 -0.09886573
-0.010098729 -0.008515228 -0.051803336 0.10382863 0.11410667 -0.10059062 -0.061603744 -0.08171329
-0.07550943 -0.007830797 0.066614605 -0.012594193 -0.04979526 -0.07960237 -0.040968332 -0.007571057
0.105558805 -0.16776489 -0.047432024 -0.08872372 0.03904594 -0.10312839 0.018519405 -0.100078404
0.13365076 -0.113999166 -0.007984697 0.034176044 0.012446728 -0.056785297 0.10388828 0.010482956
0.07539182 0.020857207 -0.087914 -0.1257981 0.010643524 -0.04655397 -0.062637374 0.009485382
-0.118131205 -0.12895416 0.09308269 0.030620018 0.013714587 0.13972092 -0.09958035 0.06094191
-0.12833749 0.098801576 -0.037240352 0.085620396 -0.095750965 -0.029963722 0.055411097 0.06717436
-0.10207567 0.085656784 0.022732856 0.13176513 0.045215838 -0.15813805 0.0112964595 -0.06460123
-0.14433458 0.10947534 0.089481324 -0.050230086 -0.050961222 -0.15927567 -0.0027602809 0.005621059
0.05572422 0.06996595 0.08396903 0.100976124 -0.008532814 0.021658067 0.13806912 0.11324466
0.010016221 -0.14751077 -0.13642347 0.06355747 -0.053665586 0.0044978186 0.053401962 0.13221063
-0.030356022 0.098296665 0.017196093 -0.06329479 0.1288653 0.002756678 0.08339896 0.16149022
-0.11414746 0.058757108 -0.064122684 -0.015026139 -0.07833046 0.010682255 -0.010918142 -0.07970948
0.041981257 -0.075713985 -0.09661545 0.13655527 -0.12089055 0.005524655 -0.08650312 0.08893966
0.057329368 -0.012123006 0.06887145 -0.099553995 0.14047165 0.09742629 -0.078974575 0.13543452
-0.12562867 0.015345207 0.006136137 0.11857833 -0.014532411 0.114392966 -0.06283596 0.05014108
-0.014416816 0.057856306 -0.060500577 -0.063086376 -0.14908525 -0.067647666 -0.050323725 0.052691564
-0.03106095 -0.009435615 0.05172672 0.06033228 -0.08141929 0.096492015 -0.08500718 -0.083235174
-0.06384238 -0.017145181 -0.013015419 0.008716245 -0.0369147 -0.0037169524 -0.0006232672 0.15457374
-0.011830494 0.029824043 0.14527401 -0.085547715 -0.081065 -0.07607729 -0.0694977 -0.102625586

lstm.weight_hh_l1 f4 [200, 50]
00000000: 87dd 783c 3971 38bd 1844 143e 4b3e df3d
00000010: 873c 16bd a7cb b33d fc2d 063e 080c f43d
00000020: 63c4 85bd 9b8e bfbd 113b 85bc c27f e1bd
00000030: ed29 b63d f74e 37bd 3621 93bd ba1d 34bd
00000040: f22e f23d 3d47 e33d aff0 323c 6f64 51bd
00000050: 18aa 0a3d 15e5 ef3d 67b5 b23d a6a4 85bd
00000060: 8bca edbc 77c5 e6bd 4910 05be 5dc9 d93d
00000070: 3dc5 9b3d 531e 953d 52d7 2a3c ac4c efbd
00000080: eaae 203d a428 dc3c 0785 78bd 84ff abbd
00000090: c213 183e 9c61 24bd 90a4 933d c325 94bc
000000a0: f8dc 9fbd a019 ee3d 9b7f dabd b196 523d
000000b0: e806 163e 3d01 bfbd 667a 9d3c 54ed c83d
000000c0: 3a96 dd3d da28 573d 2439 9e3d 2a20 debc
000000d0: 1015 a3bd e9c8 91bd c4ce f3bd 6bbf edbd
000000e0: 435e 023e 8b1a 54bd 5fa6 57bd 4b04 fdbd
000000f0: 279c 663c 5b20 1bbe 1c59 4ebd 8f78 323c
00000100: e204 8cbc 7dbf a93c f50f cc3d 5483 0dbe
00000110: cce3 e43d 3528 b83b 27b8 dfbd 2fda bbbd
00000120: bcc8 a7bd a68b 8dbd 7ab1 1b3d 5eef 5ebd
00000130: acb1 373d 1339 b7bd a6f3 c13d 59d3 d2bd
00000140: 770f 00be 67a6 883d 8274 f63d 295e 643d
00000150: e573 dabd 3501 e33c 5dff 003e 0577 093e
00000160: 302f 6f3c ee06 fc3d edf4 7a3d 7a80 afbd
00000170: 9e5c cabd 0a36 bfbd 11e5 f7bd ea90 a6bd
00000180: 059a cb3d 2374 35bd 3ba0 e2bd d969 433d
00000190: 08fd 45bd aebd 043d 76c0 63bd 39b4 cabd
000001a0: fcf2 043d 4552 b2bd 39c3 0ebe 2e31 f7bd
000001b0: 2de7 d9bc 88e3 0a3e b09a 45bd 6c11 0ebd
000001c0: 42f9 9c3c df9d a03d 9b78 dd3d d03c 4f3d
000001d0: 16e1 c53c 28f2 d63d 68cc 9c3d fabe ddbc
000001e0: 4a53 b23c 2bc3 fb3d 708c be3d 6fd9 24be
000001f0: 8cd2 f23d 3250 9a3d bb59 dc3d 9773 463d
00000200: e54f a9bd 5424 9fbd d3e4 09be 5bc7 df3d
00000210: 2f24 033d 682d 743d dfa0 18bd 6bd2 ddbd
00000220: 36e0 123d f04d 3ebd acf0 623a 3280 873c
00000230: a821 ce3d 4243 25bd c468 513d 6823 ecbc
00000240: d7aa 19be 2fb2 babc c714 1cbe caca e3bd
00000250: 3430 84bc 26df e3bc 36f4 9d3d d9b5 f63d
00000260: fb3b f5bc 26a1 d63d d33b a63d 5119 40bc
00000270: b5e6 fb3d dbee bdbd d4fb edbd c482 5f3c
00000280: 4130 623d 6ad2 3bbd 4791 f83d 1c34 5abd
00000290: 8904 223e acd8 b1bd 498c 673d f7f0 3e3c
000002a0: cbc8 bd3d 3772 083e 37d0 423d 084a d2bd
000002b0: 9cec 0ebe 040e 3dbd ff19 9b3d 445a 013e
000002c0: f90c 1fbd 4ad8 78bd 8480 053e f9ea e1bc
000002d0: 111d ffbc 64c8 a43d b2f3 b8bd 1509 a63d
000002e0: 7a02 743c 6aee 1fbe d6fe d13b 3512 2ebc
000002f0: 6672 683c 0efe c7bc 3f03 9c3b afda b0bc
00000300: 294d 83bd 4378 e3bd 9cd5 843d 2886 ad3d
00000310: 8253 fc3d ccbc 303d bcd8 bb3d c432 e53d
00000320: 3b22 a7bb a334 e2bd 79fd 34bd 8d3a 7ebd
00000330: 0a0f 76bd 5ffe bb3d 7217 a8bd e85f e83d
00000340: 66d1 143d 382c 17be 39cc 64bd 5afa cfbb
00000350: ab73 323d 59c4 9ebd 356b 203c e46d 03bd
00000360: 5100 e7bd c8b8 3abd 52c5 e0bd 6163 56bd
00000370: 00a9 6dbd 5efc 0d3e 8c71 ef3d 0033 773d
00000380: 84dd 0e3e d672 64bd 2453 cbbc 8993 62bc
00000390: 7e8b 80bd 44a1 9d3d c406 de3c c800 b73d
000003a0: 29d1 cabd 0032 893d 9eaf 043d 8e78 273d
000003b0: e104 15bd 97c2 b93d 5840 4f3d da28 fe3b
000003c0: c8f0 5e3d 3a45 3bbd 72c2 c03d 97d5 d2b9
000003d0: 21fb 46bd e5a3 0b3e edfe b43d ca81 7abd
000003e0: 7544 a8bb 301a f9bd eea3 893d fb7a 9a3d
000003f0: 750d 083e dab4 2a3d 4fbe 32bd c11e 913d
0.015189535 -0.045029853 0.144791 0.10900553 -0.036678817 0.08779078 0.13103479 0.11916357
-0.065315984 -0.09353372 -0.016263517 -0.11010696 0.088947155 -0.04475304 -0.07184069 -0.043973662
0.1182536 0.11097572 0.010921641 -0.05112117 0.03385362 0.11713616 0.08726006 -0.06525545
-0.029027244 -0.11268132 -0.12994494 0.1063411 0.076059796 0.072811745 0.010427313 -0.11684546
0.03922931 0.026874848 -0.06067374 -0.08398345 0.14851287 -0.04013215 0.07209122 -0.018084412
-0.07805818 0.11625981 -0.1066887 0.05141324 0.14651072 -0.09326408 0.019223403 0.09810892
0.10819669 0.052529193 0.077257425 -0.027114946 -0.07963002 -0.07118399 -0.11904672 -0.11608776
0.1273127 -0.051783126 -0.0526489 -0.123543344 0.014075316 -0.15149061 -0.05037795 0.010893001
-0.017092172 0.020721192 0.09963981 -0.13819629 0.11176261 0.0056200274 -0.10923796 -0.091724746
-0.08192584 -0.069114015 0.03801105 -0.054427497 0.044847175 -0.08946433 0.094703004 -0.102942176
-0.125059 0.06672364 0.12033941 0.05575386 -0.106666364 0.027710536 0.12597413 0.13424309
0.014598653 0.12306009 0.061268736 -0.08569427 -0.098809466 -0.09336479 -0.12104238 -0.08133109
0.09941486 -0.04430021 -0.11065718 0.047708366 -0.048337013 0.032407455 -0.055603467 -0.09897656
0.03245829 -0.08707098 -0.13941659 -0.12069927 -0.026599491 0.13563359 -0.048243225 -0.034684584
0.019161824 0.078426115 0.10814019 0.050595105 0.02415518 0.104954064 0.07656175 -0.027068604
0.021768231 0.12293085 0.0930413 -0.1609857 0.11856565 0.07534827 0.10759302 0.04845008
-0.08267192 -0.07770601 -0.13466196 0.10926696 0.03201693 0.059613615 -0.037262794 -0.1083115
0.035858355 -0.046461046 0.0008657079 0.01654062 0.10065013 -0.040347345 0.051125303 -0.028825477
-0.15006576 -0.022790043 -0.15242301 -0.11122663 -0.016136266 -0.027816366 0.07712595 0.120464034
-0.029935827 0.104799554 0.08116879 -0.011724786 0.12299863 -0.09274074 -0.11620298 0.013642017
0.0552218 -0.045854963 0.121370845 -0.05327235 0.15822043 -0.08683905 0.05653027 0.01165413
0.09266814 0.1332482 0.04756185 -0.102680266 -0.13957447 -0.046155944 0.07573318 0.1263209
-0.03883073 -0.060753144 0.13037306 -0.027577864 -0.03114179 0.08046034 -0.09030856 0.08107201
0.014893169 -0.15618291 0.0064085526 -0.010624458 0.014187431 -0.024413135 0.004761129 -0.021588651
-0.064112015 -0.111069225 0.06486055 0.08472854 0.12320615 0.0431488 0.09172198 0.111913234
-0.005100516 -0.11045196 -0.044187043 -0.062067557 -0.060072936 0.09179377 -0.08207597 0.11346418
0.03633251 -0.14762962 -0.055858824 -0.006346983 0.04356734 -0.07752294 0.009791185 -0.03208722
-0.11279357 -0.045586377 -0.10975136 -0.05234087 -0.0580225 0.13865802 0.11691579 0.06035137
0.13951689 -0.05577358 -0.024819918 -0.01382912 -0.06276606 0.076967746 0.027102835 0.08935696
-0.099031754 0.0669899 0.032394044 0.040886454 -0.036381606 0.09070318 0.050598472 0.0077563347
0.054428846 -0.045720316 0.094120875 -0.00040213458 -0.04857934 0.1363674 0.08837686 -0.061158933
-0.005135114 -0.12163198 0.0672072 0.07542988 0.13286383 0.04167638 -0.043638524 0.07085944

lstm.bias_ih_l1 f4 [200]
00000000: 9c8c 51bd c017 1a3e 3011 b6bd 8b31 dabb
00000010: 9635 c23c ad11 f0bd 58af d4bd 1478 e23d
00000020: 88e3 293e 35f7 cdbd 1997 b7bc e07d 8fbd
00000030: e25e 7d3c 8b87 47bd ed15 eb3d 5b9d d53d
00000040: cc69 09be e03b 393d e262 b2bd 8691 c73d
00000050: b220 063d cf66 6ebd e5dc 18be d129 133e
00000060: cdf8 f2bc a399 1f3e 2cb5 e8bd eb94 803d
00000070: 7939 7bbd 569c e0bd 47e4 44bd 7cbb d03d
00000080: 4d3a ee3d 9fd6 6b3d f917 6d3c f07b 7dbd
00000090: d3e6 703d b312 84bb 715a 18be 8a91 27bd
000000a0: 921d 22bd e03b c9bd e18f 943b 5868 ac3c
000000b0: 13a5 8dbd 9fe7 a63d dd39 10bd d011 c73d
000000c0: d50e fd3c c08e ff3d 54dc f8bd 7d7b 0e3d
000000d0: a41b 14be f344 b4bd eedb 06be b1fd d5bc
000000e0: 584c f33d 84ff c33c 0705 0e3e 72d8 e7bd
000000f0: 098d c23d fa57 383d 12fc 1d3d bc3d f23d
00000100: 2f5f 2b3d 6092 6dbd 634a 96bc d73a 13be
00000110: ac94 dd3d 645d ed3d 75d0 7b3c 39a3 c23d
00000120: ae7e ec3a 4577 263e 5ec5 f13d 6011 76bd
00000130: 66bb 19be 1666 adbd 09f2 37bd 2978 c2bd
00000140: a007 b3bd eba6 f1bd 59a3 10be 321d 303d
00000150: e5fc cfbc a620 c4bd 546d c33d 113b 003e
00000160: 36e1 c7bc 99db c1bd 454f 903d 1954 413d
00000170: 3bc9 96bd c4b5 043d f913 993d a8f3 cabd
00000180: cd22 c23d e67c fabd ed09 f2bc f1d5 ac3c
00000190: aa90 d33c b498 29bd 6d72 f6bd e18e a2bd
000001a0: 968a e83c a50d 65bd b33b a0bc e45c f73d
000001b0: 5d0f ba3d 5efa 5fbc 157c 7bbd 35e1 f2bd
000001c0: df7f babd abd4 95bc 1a08 0b3e d656 063e
000001d0: bba9 773c 58c7 06be 081c 89bc 4dc3 d2bd
000001e0: 7a74 e1bb 5bc5 b4bd aa14 003c 58cc b03c
000001f0: af5b 5abd 9594 803c 12b2 bfbb c271 10bd
00000200: 34c9 303d 0b77 1cbd 6200 33bb 6b3b a8bc
00000210: b9dc c5bb 5b57 863d d63a 8e3d 3bc2 abbd
00000220: fad6 543d e848 a43d 6257 dc3b 8516 a33d
00000230: ce98 da3d 4fac 9ebc cfa0 f3bd b5d6 663c
00000240: d84b a63d a533 533d aa2c a33c 3428 76bd
00000250: 3bfe eb3d 5050 2cbc c0a6 db3c 2a42 9cbd
00000260: c5d3 ebbd 96ad fb39 4cd4 553c 47f2 aabd
00000270: ab22 8b3d 1ee5 fabd 601f 303d bfd2 39bd
00000280: 6e8d 233b b49f ecbd 246e e8bd 7b83 0c3e
00000290: aa39 11bd 9222 8fbd e2df 8e3d 0f02 8f3d
000002a0: c4eb 08be 6391 ad3d 3676 483d f248 fd3d
000002b0: c90f a2bd 007c 0b3e 2a7c 4f3d 8044 c4bd
000002c0: d4c1 adbc 2761 1d3d 9796 3ebc aa50 04bd
000002d0: a7ba 8b3d adca 063e eeae 1c3d 56e0 d33d
000002e0: 7b4d 6d3d 4ada 9b3c 5bd4 8ebd e7a0 c5bd
000002f0: 5386 65bd 7891 86bd 22ef d63d b5d5 aa3d
00000300: a0e0 d23c 79f0 b43d 2f22 053d ce69 8dbd
00000310: f788 be3d b5d8 a73c 018f ea3d 8657 283d
-0.051159486 0.15048122 -0.08889997 -0.006658738 0.023707192 -0.117221214 -0.10385007 0.11058059
0.16590703 -0.100569166 -0.022410916 -0.070064306 0.015464516 -0.04871325 0.114787914 0.10430404
-0.13419265 0.045223117 -0.08710267 0.09744553 0.032746024 -0.058203515 -0.14928015 0.1437142
-0.029659653 0.15585952 -0.11362681 0.06278404 -0.061334107 -0.10967319 -0.048069265 0.1019201
0.11632214 0.057577725 0.014471048 -0.061885774 0.05881388 -0.0040305494 -0.1487825 -0.04091028
-0.03957898 -0.098258734 0.0045337533 0.021045849 -0.06916251 0.08149647 -0.035211433 0.09720194
0.030890862 0.12478399 -0.12151399 0.034785736 -0.14463669 -0.088022135 -0.13169834 -0.026121946
0.11879796 0.02392555 0.13869105 -0.113205805 0.094995566 0.045005776 0.03857047 0.11828181
0.04183882 -0.058000922 -0.018346017 -0.14377914 0.108193725 0.115900785 0.015369524 0.095037885
0.0018043125 0.16256435 0.11805223 -0.060075164 -0.15012893 -0.08466737 -0.044908557 -0.09495575
-0.08741689 -0.11799415 -0.14124812 0.042996593 -0.025389144 -0.0957654 0.09542337 0.12522532
-0.024399381 -0.09465713 0.070463695 0.047199342 -0.073626004 0.032399908 0.074745126 -0.09909755
0.09479294 -0.12230854 -0.029545749 0.021098109 0.025825817 -0.041405395 -0.12033544 -0.07937408
0.028386395 -0.055921216 -0.019559717 0.12078264 0.090849616 -0.013670532 -0.06139763 -0.11859361
-0.09106421 -0.018289885 0.13577309 0.13119063 0.0151161505 -0.13161981 -0.016737 -0.10291157
-0.00688034 -0.08826705 0.007817427 0.021581814 -0.053310093 0.01569585 -0.005850085 -0.035264738
0.043160632 -0.038199466 -0.002731346 -0.020536145 -0.006038275 0.065596305 0.06944816 -0.08386656
0.05196283 0.08021718 0.006724284 0.0796328 0.106736764 -0.019369273 -0.11895906 0.014089276
0.08119935 0.051562924 0.019918758 -0.060096934 0.115231 -0.010517195 0.026812911 -0.07629807
-0.11515001 0.00048003782 0.013051104 -0.08346992 0.06793722 -0.12250732 0.04299867 -0.045367
0.0024956125 -0.115538985 -0.11349133 0.13722031 -0.035455383 -0.06989016 0.06976296 0.069828145
-0.13371187 0.08474996 0.04894086 0.12367429 -0.07913167 0.13621521 0.05065552 -0.09583378
-0.021210589 0.03842273 -0.011632583 -0.03230349 0.068227105 0.13163252 0.038252763 0.10345523
0.05793522 0.019024987 -0.06974097 -0.0964983 -0.056036305 -0.06570715 0.1049483 0.08341543
0.025741875 0.08834929 0.032503303 -0.06904946 0.09303468 0.020489076 0.11453057 0.041099094

lstm.bias_hh_l1 f4 [200]
00000000: 6c8a 563d 02f8 cdbd 0dcf 373b 73eb d5b9
00000010: 95d7 ac3d 43ac c4bd d8ca 65bc affb 963d
00000020: 84e6 1b3e 4e5f 95bc 979a 033e 65bf 2ebd
00000030: 4c4f 00bd b8ad 06bd 5a1f 163d 3f23 eebd
00000040: 32b4 6d3d 245e 7a3d 259b 86bb 4df6 193e
00000050: 272c a33d 2c3d 083e 9ed7 82bd a20c 07bd
00000060: cd13 02be ff03 c3bd ef96 b1bc 6648 db3c
00000070: 6a26 f4bd 11f2 063d f7ec 043e 297a bebd
00000080: bcae 1fbe ddc4 a23d 31ec 05be d639 08bc
00000090: b259 913d e4d4 debb a009 d8bd 28c6 113e
000000a0: 92af ae3d 604c b43c 04c4 0fbd 167e 6bbd
000000b0: d623 a23d 1315 233e 1882 68bb d3c7 973c
000000c0: 4e16 063e d958 10bd af4f 493d 30ba 07be
000000d0: 7943 2d3d 8225 ec3c 4f1d 8c3a c591 b7bd
000000e0: 9e75 98bd d8bb ca3d debb 053e bc4f 81bb
000000f0: c20f b33c d7e0 dbbd 41f5 65bd b858 d1bd
00000100: e6c6 59bd 9d3f 843d 788a 9cbd d0e7 37bc
00000110: 6ccd 1ebe 1c25 33bd 638b dabc 4f6d c53d
00000120: 2028 8a3d 75a7 623d 4888 98bd c0c6 193e
00000130: 6c25 fabd 7218 4b3b dd14 17be e61c a0bd
00000140: 0487 90bd 0fed bf3d af26 7b3a a110 0dbe
00000150: aaed e03c 9dda c2bc f310 853d 3c9d b5bd
00000160: d48e 7bbd 955b 0b3d 5b3d d4bd 570b cb3d
00000170: 7738 c33b 6846 783d 0dd7 1fbd 2c23 0b3e
00000180: 15d7 6ebd 60bf 87bd 4a9c b33c c4c0 e3bc
00000190: 9e2b bebd 1a70 5bbc bf34 013e e777 64bd
000001a0: 8fe1 3abd c32d a6bd 53c8 8f3d 0189 e2bd
000001b0: b5f3 1cbe 602f 0c3e 9497 e13d 15fa acbb
000001c0: 8789 80bd 3542 883d a463 1f3e 9975 d43b
000001d0: af67 e6bc f407 d73d 9994 bb3d 2e20 0e3e
000001e0: 7a2d f1bd 4512 21bd 2bcd 063d cddd 3f3c
000001f0: 9fb4 02bd ee69 cb3d 90cc b7bd deea afbd
00000200: feb0 90bd 775e e93c 21e7 8b3d 1f3d 0f3e
00000210: 9206 563d d4be dabd c072 2abd a540 a5bd
00000220: 2040 433d 88fa a9bb 0e6c 75bd 086a d4bd
00000230: dd95 d53d 0190 9d3c 3bb8 903b 07d5 72bd
00000240: 0ec0 8d3d 7c32 fbbd 025b 9e3c efb8 bb3d
00000250: a40a f63d 7a5a 21bd 86d5 763d 6f1f afbd
00000260: 1e8f b13d 78f0 1e3e 1d6b e3bd f430 40bb
00000270: 3af1 ffbd 05f8 383d 773e 5c3e d38e d4bd
00000280: 3324 0b3e 0194 67bd a261 d23c e9e6 813d
00000290: 6e04 cfbd 9eee 903d 68ce 04bd c912 0dbb
000002a0: faf0 e33d ffb0 983d f3b0 33bd 803b 54bd
000002b0: 42c5 30bd cc43 c0bd 14b7 02be f9f4 8a3d
000002c0: defd 073d eb46 a53d a1a4 06be 7a12 9c3b
000002d0: c990 86bd 28b3 aabd 3ed1 21be cf4e de3d
000002e0: 2f77 f53d c651 d7bd 8a24 07be 0b43 ed3d
000002f0: 9114 d03d 090f 563c f461 f43d adf8 15be
00000300: 5f44 8cbd 88d0 c1bb 6c7d c63d 0e60 253e
00000310: 27f5 31bd 8411 36bc aae4 21bb 7c4e 2f3c
0.052378103 -0.10057069 0.0028046996 -0.0004080195 0.084395565 -0.09603169 -0.0140254125 0.073722236
0.15224653 -0.018233921 0.1285194 -0.042662997 -0.031325623 -0.032880515 0.036650993 -0.116278164
0.058033176 0.061124936 -0.00410785 0.15035363 0.07967406 0.13304585 -0.06388782 -0.032971032
-0.12702866 -0.095222466 -0.021678416 0.02676792 -0.119213894 0.032945696 0.1298102 -0.09300644
-0.15594 0.07947705 -0.13078381 -0.00831457 0.07097186 -0.006800281 -0.10548711 0.14235747
0.08529581 0.022009075 -0.035099044 -0.05749329 0.079169914 0.15926008 -0.0035477933 0.0185279
0.13094446 -0.03524098 0.049148258 -0.13254619 0.042300675 0.028826479 0.0010689887 -0.0896335
-0.07444309 0.098991096 0.13059947 -0.0039462727 0.0218581 -0.10736244 -0.056142095 -0.10222
-0.0531682 0.06457446 -0.07643598 -0.011224702 -0.1550805 -0.043736562 -0.026677793 0.096399896
0.067459345 0.05533548 -0.074478686 0.15017223 -0.12214169 0.0030989912 -0.14754052 -0.07818012
-0.07057002 0.09371387 0.00095806544 -0.13775875 0.027457077 -0.023785884 0.064973734 -0.08867881
-0.06141551 0.034022886 -0.10363265 0.09914272 0.005957659 0.06061402 -0.039023448 0.13587636
-0.058310587 -0.06628299 0.02192511 -0.027801879 -0.09285663 -0.013393426 0.12617777 -0.05577841
-0.045625266 -0.08114197 0.07020631 -0.11061288 -0.15327342 0.13689947 0.11015239 -0.0052788355
-0.06276231 0.06653253 0.15565354 0.0064837453 -0.028125612 0.10499564 0.09159202 0.13879463
-0.11776252 -0.039324064 0.032910507 0.011710596 -0.031910535 0.09932314 -0.08974564 -0.08589719
-0.070650086 0.028487427 0.06831194 0.1398816 0.05225236 -0.10680929 -0.04161334 -0.080689706
0.047668576 -0.0051873364 -0.059917502 -0.10371786 0.10428975 0.019233705 0.0044164932 -0.05928519
0.06921397 -0.122654885 0.019330505 0.09166133 0.12013748 -0.039392926 0.060262226 -0.08550917
0.086698756 0.15521419 -0.111044146 -0.0029326053 -0.12497182 0.045158405 0.21508203 -0.10378804
0.13588028 -0.056537632 0.02568132 0.06342871 -0.10108267 0.070767626 -0.032423407 -0.002152609
0.11129947 0.07455634 -0.043869924 -0.051814556 -0.04315687 -0.09387931 -0.12765151 0.06785006
0.03320109 0.08070167 -0.13148738 0.0047629448 -0.06570584 -0.083349526 -0.15802476 0.10854875
0.11985623 -0.10513644 -0.13197532 0.11585053 0.10160173 0.013065108 0.119327456 -0.14645644
-0.06848978 -0.0059147514 0.09691891 0.16149923 -0.043446686 -0.0111125745 -0.0024702945 0.0106998645

fc.weight f4 [1, 50]
00000000: f749 b2bd f17b 15be 2966 2c3d e00b 03be
00000010: 70da 963c 2488 d73d 8b9a 0bbe b768 d5bd
00000020: f8bd 6f3d bd70 303d 7d1a 8dbc c6c1 f33d
00000030: 9576 e3bb 357b ca3d d994 cf3d 92c5 883d
00000040: dbf8 123d 385b 353a 8914 dc3a ba94 b43c
00000050: 53a3 f8bb 1b24 b1bc b60a 9b3c 0b6b c93c
00000060: 9457 703d 320d d93d 5658 f33d bfcf ffbd
00000070: 3454 0bbc 2f89 ebbd 7a49 b73d c285 553d
00000080: 45da 94bd fc2b 36bd e0c2 ab3d 294a 61bd
00000090: 5cef 98bd 41b7 d3bd 96eb b03d d7f6 40bd
000000a0: b128 bf3d d45b 22bd e83a 05be 7ac7 20be
000000b0: d5af a2bd f1dd 34be 2ad4 04bd 09da 9ebd
000000c0: 08ff 0f3d 5a10 9f3d
-0.08705514 -0.14598061 0.042089615 -0.12797499 0.018414706 0.10524014 -0.13633172 -0.104203634
0.058530778 0.043076266 -0.017224545 0.11902194 -0.0069416263 0.09886781 0.10135812 0.066783085
0.03588186 0.00069181947 0.0016790788 0.022043575 -0.007587829 -0.021623662 0.018926006 0.024587175
0.05867727 0.1059822 0.11882083 -0.12490796 -0.008503962 -0.11500775 0.089495614 0.052129515
-0.07268194 -0.04447554 0.08386779 -0.055002365 -0.07467529 -0.10337687 0.086386845 -0.047110405
0.09333933 -0.039638355 -0.13010752 -0.15701094 -0.079436935 -0.17662789 -0.032428898 -0.07756431
0.035155326 0.07766791
